redneuronal_básica/modeloANTIGUO_entrenado.npz (npz, 128374 bytes, 4 tensors)

pesos_input_hidden f8 [20, 784]
00000000: 483e a413 89df c73f 0012 d5ce 161d 80bf
00000010: 082d d7a6 fde2 b6bf 4640 9bdb 4f76 d5bf
00000020: bcec cd3b 4830 cf3f 3c98 193d 9bdd d03f
00000030: d658 24aa bf3c d63f 622e 004d f775 dabf
00000040: 701b 2373 2924 debf 7cd8 d417 6dd4 c8bf
00000050: 008e 1d0f 5b4e 88bf 18ca 0273 7e44 babf
00000060: 57a6 e64f dc62 c3bf b213 d97f 227a d2bf
00000070: bcd6 134d 42ea d5bf 8cd5 5de2 ea46 cdbf
00000080: 98fa 8f99 183e c3bf 8ee0 f515 efe2 d33f
00000090: 70e1 0001 d4ce dc3f d4b5 b0c1 5aa0 d33f
000000a0: ea06 bf82 e7ee d6bf 709d b4fd e2fc bcbf
000000b0: 246d 7bf8 f275 d3bf 8484 ca65 4834 c43f
000000c0: 9a62 a272 0720 d43f cce6 067a 12df dc3f
000000d0: c0b3 8fad dca4 8b3f bce9 646a dce5 d03f
000000e0: 6237 a33c 4979 d43f 38e4 00b8 452d bc3f
000000f0: e8c8 90e9 fad5 d4bf bcbb 1b3f 2be3 d0bf
00000100: b01c 853d c29c dfbf 5c46 13f1 bebb d93f
00000110: f38c fc71 3171 d0bf 19c3 92c9 43c8 cbbf
00000120: 9e63 c7b2 7ca7 d8bf 21cc 6df4 639d d83f
00000130: e400 b08c e8f3 a93f ef9b 9569 5447 953f
00000140: c4c9 491e c98b c6bf 488d 6ebd f057 d8bf
00000150: d432 4945 caec db3f 1d91 942d edf2 c83f
00000160: f7fa 39eb 5452 d3bf 2512 a6b4 f27b cd3f
00000170: 1da1 a558 fc59 803f 399a d715 b36a cc3f
00000180: 41d0 5204 9757 92bf 7a01 e092 b0cc c93f
00000190: d1f2 6571 8efb d53f a749 e2da 9d64 d53f
000001a0: ae27 16d3 9b80 dfbf 803f a831 8f7b ac3f
000001b0: 6865 7a75 0b4f c9bf 8019 590c 468b c73f
000001c0: ace2 f5f8 05ee ca3f 08a6 052d 8f01 dcbf
000001d0: 8793 8ee9 7d70 733f 0fc3 94d1 68dd 703f
000001e0: a01d fe0e 02fc dabf 6e0f d6ed f5de ab3f
000001f0: 56a7 a4ee a4df d73f f21a 14e2 557f b6bf
00000200: ad42 fcaf 37b3 dd3f 3bf2 b763 a893 d3bf
00000210: b079 80d0 7529 cbbf 04db 0bde b983 d73f
00000220: b00a d4eb 11a9 c23f 27dd e7f8 100d a73f
00000230: cacf a10e eb08 d03f 67d3 0a06 328b d3bf
00000240: c9e9 b307 512b d63f 1eca 0cbe b54a e13f
00000250: e486 e79a cb07 b73f e836 3c5f 62da a93f
00000260: 4ebd 4d90 e44b d23f 907b 165f ea7d b6bf
00000270: 2f60 b2ce 0f35 d13f 1a11 ac6a 0ae9 b6bf
00000280: 2210 29ad 7fa9 d53f a169 5bc9 0cb9 d0bf
00000290: 20d9 9ae0 08f0 cc3f 809b bd49 0154 af3f
000002a0: 2826 5a77 e269 d6bf e803 2557 2640 cf3f
000002b0: edf5 4459 8463 de3f 0f57 1136 3d26 b1bf
000002c0: 46ea c874 70b1 d3bf 33e0 714b 5a55 9d3f
000002d0: 7f2b e101 4f28 db3f a103 3440 5a08 ccbf
000002e0: 552e 238b 495d debf ecbc da41 d797 d73f
000002f0: a1a3 f9c5 15e8 c93f de48 3672 0316 cbbf
00000300: 9bdc 6a4a bfc3 c4bf 6c90 7c05 44e0 be3f
00000310: ac66 7179 7e33 c3bf 61b7 c1c9 a721 c7bf
00000320: 9319 999c 4c3a c33f db9c 8f48 0223 cabf
00000330: 0ef9 76e5 dbbc dd3f fb6e d80d b04f c3bf
00000340: 2f3d 6076 fe0f e23f 6cf1 6d46 7ea1 a33f
00000350: 5fa7 a782 0b11 c0bf 3a21 6cfa bfa7 d0bf
00000360: 4d59 31f7 5146 bdbf 5ebe 7020 2f36 ccbf
00000370: 7d2b a7bf e7f5 c93f a0a2 2ff8 36ee b4bf
00000380: 1090 7712 4365 b13f 0141 bac4 cac1 c33f
00000390: 7c5a a6c7 5d3f c83f 35f8 9b33 820e a7bf
000003a0: 14f0 bceb e41f dc3f efdc 556d c9f7 cabf
000003b0: d424 158c 1731 d33f d5d7 5535 00a1 cabf
000003c0: d884 3090 74d6 c2bf 0402 afd1 ceda d5bf
000003d0: 9c53 2a94 a694 d5bf cd35 6d11 6dc0 b8bf
000003e0: ef35 4e7f d981 ddbf 9ec9 3cad d2c6 cbbf
000003f0: 02ea 1eaf bfb0 d7bf 81dc 1eaf e826 cebf
00000400: 9f07 65a1 501e c3bf 13fe 2e9a 16fd a7bf
00000410: 921a c17f 2686 b63f 8e99 fe0f ba78 d13f
00000420: ab3f ace2 5f17 bcbf fb36 6b09 6cfe ad3f
00000430: 9e9f 0648 462e e73f b569 cf1e f39d ca3f
00000440: 5121 0e2c 147a adbf a6c4 47bd a8fe 853f
00000450: b65a 1c13 5468 d83f 268b 6b39 0d91 cb3f
00000460: b80c 6c6a 7a5e cd3f 78c0 af67 9807 b83f
00000470: 466d 5990 c7a3 d53f 7a64 0231 1766 d73f
00000480: b1b9 37be 8351 83bf 8e60 2d88 31a8 e0bf
00000490: 97d2 1760 1623 d7bf b2d7 a4ae a62d d9bf
000004a0: ea6d 4995 9537 dcbf ebbf 82a0 efa3 dabf
000004b0: 41fb d4e0 ce0f bebf 3c2b 9eee fa95 e3bf
000004c0: aff8 58f1 0d6c e7bf 4ecd aef1 b592 cebf
000004d0: 7203 ec5d 818b d7bf 6220 bf9f 378c e6bf
000004e0: 5060 0b07 7a5e e4bf 96aa 5b13 ddbc b3bf
000004f0: cf09 14ae f549 dfbf c36f 4ff3 e977 d8bf
00000500: c317 f07d 4235 e33f 1f2f 9af0 92ff babf
00000510: 09d4 8bcc 6b1e e13f a6ca cf8e 36e9 d93f
00000520: 52e6 5b7f e17c e23f b64f b1b9 e1ad d03f
00000530: c265 aa25 6b87 dd3f de0f 6a50 d221 c33f
00000540: eedf a7b1 305b d53f fb00 87f6 7d7d d9bf
00000550: c4d1 cc64 c50b d33f fee2 85a1 a11b bbbf
00000560: ce6d 7892 f44d d1bf eb2c c098 b564 d53f
00000570: 8142 9bea 70c9 ba3f c81e 0a28 7e60 d4bf
00000580: 956b 8554 c54a 713f db45 2d3a 795d c53f
00000590: 75d6 cec5 e618 b3bf 4453 26a4 c266 dcbf
000005a0: 503a e286 ebc9 9fbf 9454 3e51 d02d e6bf
000005b0: 2a80 65f5 55f4 dfbf a64a bf61 3cad bdbf
000005c0: 5150 3cb3 24d9 e6bf 1f42 c046 0992 973f
000005d0: 75c9 bc3b ce34 debf 7cb1 2895 ca28 cc3f
000005e0: adae 19f8 2adf e0bf 79d2 9a7f 499d d53f
000005f0: 5bcf 8a56 5ac4 bcbf fea1 5fa4 9df9 d53f
00000600: be57 af08 51e3 d83f ab68 bd8e 9efa bc3f
00000610: 577e 1bd6 3200 de3f 1c95 58e3 17ae c9bf
00000620: 289d 60ca 4be5 de3f f6d1 d580 4176 d3bf
00000630: 6546 f197 6928 b93f ed2f 5518 a432 d0bf
00000640: 2ae8 5245 4383 c7bf a8d9 5694 72ac d53f
00000650: c7bb 8aff 13c7 6e3f ac45 c6bf c852 c0bf
00000660: e0d5 387a 1998 a93f 1a5f d88a 25c9 dbbf
00000670: 6039 d95e 360b bebf 9e6d e711 0f05 913f
00000680: f2ce 5d52 c580 d2bf f2f8 6d93 a7fd d9bf
00000690: b011 b965 a405 e3bf b37d 8e71 8c2c c0bf
000006a0: d151 780e ac17 e2bf fd79 ef35 7ab5 9f3f
000006b0: 789c ade0 4783 dcbf 8513 5479 a498 e2bf
000006c0: 2672 7c41 b4fc b03f aafb 612a 84cb d6bf
000006d0: 9378 78e6 87c8 a2bf 3228 3932 014b e13f
000006e0: 400f 107d 8745 ea3f 7ee3 8f2f 12f6 e83f
000006f0: 6a73 f7bd 1f89 d1bf 88cc efee 9558 a43f
00000700: a00a 0617 97cd db3f bcd7 f7eb 8057 d23f
00000710: 41f7 f0af 2fad b9bf adf6 abec e25a c23f
00000720: d561 b29d a970 d0bf 17a0 02c2 7f65 d9bf
00000730: ad48 ab81 11aa a0bf 9b6e 583e 081c c53f
00000740: 02de 77cb a58b bcbf 1bde 2bfb 8768 cd3f
00000750: d26f 56a3 de62 b1bf 4597 e88a 19e9 c1bf
00000760: 57f7 9a6c 0ab3 cebf 6d20 ff5f 1c38 b3bf
00000770: 3f8c 548e 1c9a dcbf ea69 9132 9b6c debf
00000780: 772f 99fc d005 e8bf e530 9054 23e4 e1bf
00000790: cfc1 067c 7d5d c8bf aaa9 e6f8 40e3 bdbf
000007a0: 6ef4 ac7f d40d c8bf c1a3 d3c8 7255 b1bf
000007b0: 481a 2291 ab82 b7bf 2fe5 b9cc 05f5 aabf
000007c0: a13d c56e 3e87 d03f afdb 9858 4e77 e53f
000007d0: 066f 6e68 f312 d5bf a312 7c92 eb3e e03f
000007e0: a1d3 a369 6c5d c7bf 9438 b51e 67b7 d6bf
000007f0: d773 06bd 7981 d43f f675 444a 1206 dcbf
0.1865092607408647 -0.007867983042737059 -0.08940110514884136 -0.33534618802969296 0.24366095466743853 0.26352578131480064 0.34745780578067575 -0.41345007438278547
-0.4709571480165584 -0.1939827314724346 -0.011868201636111131 -0.10260763461955269 -0.15145448590674235 -0.2887045143618777 -0.3424230339727321 -0.22872673085263917
-0.15033252237477224 0.31072594780517526 0.45012378786079577 0.30666226306024424 -0.35833156364615937 -0.11323374456389046 -0.30407404199441346 0.15784554453151511
0.314454900691581 0.4511152450246356 0.013498043104812285 0.2640296019559647 0.3199027149356565 0.11006580106995123 -0.3255603104509093 -0.26386529124186686
-0.4939427948742816 0.40208409826764124 -0.2569087613248506 -0.21704909651227736 -0.3852226014983503 0.3846063506127298 0.05068899838806987 0.02077991384922123
-0.17614091853063318 -0.3803674554748864 0.43632752195553093 0.194913527732873 -0.3019001290448808 0.23034509487855917 0.007984134154597694 0.22200621191514516
-0.017912253989109898 0.201559135166473 0.34347878526731984 0.3342661511934701 -0.4922246514694234 0.055630183040306314 -0.19772475467906792 0.18393779375965025
0.21038889557146 -0.4375951709431267 0.004745952458425579 0.004117402503923242 -0.42163135017514186 0.0544354298426971 0.3730251627445019 -0.0878804852437545
0.4640635698897693 -0.3058873151601664 -0.2122027652812455 0.3674149197026255 0.14578460707715157 0.04502156294250375 0.25054432324327236 -0.3053708132750245
0.34639383079743574 0.5403698646462691 0.08996269733281853 0.05049426472224444 0.28588213054805045 -0.08785881825904895 0.268863632061314 -0.08949341873455233
0.3384703818339877 -0.26129455245759386 0.2260752770141119 0.061187782527489354 -0.35021268516047366 0.2441451955328653 0.4748240348597779 -0.06698973245633176
-0.307705034301453 0.028645907263552494 0.42433524306823495 -0.2190048993579952 -0.47444380366934996 0.3686426299199883 0.20239517370944518 -0.21160929753074859
-0.16222373136199483 0.12060952314328838 -0.1500089734061495 -0.18071458197976667 0.15021665235890377 -0.2041933874417968 0.4646520367495136 -0.15086937595412295
0.5644523918180421 0.03834147081122094 -0.12552017097123788 -0.26023864226637594 -0.11435425076465329 -0.22040356716159953 0.20281693323189734 -0.08175986823301651
0.06795138550620572 0.15435156446302048 0.18943378685499457 -0.04503256683345606 0.4394466688279419 -0.21068685377733895 0.2998713367456507 -0.2080383549143209
-0.14716965713981867 -0.34147997357288795 -0.3371979185988552 -0.09668618846372752 -0.4610503905504108 -0.2170050950895303 -0.37016288854252377 -0.23556240607078752
-0.1493626392421534 -0.046852785416828045 0.08798447245599508 0.27299357950178027 -0.10973166736607591 0.0585817109582489 0.7243987471347173 0.20794524197010636
-0.05757201230796006 0.01073963000905771 0.38136770120892594 0.2153641252872031 0.22944574543371288 0.09386589557084501 0.33812131020177494 0.3656061152083293
-0.009432820551379036 -0.5205314311706546 -0.36151656517112357 -0.3934113221652026 -0.4408925969962342 -0.4162558619964318 -0.11742871274053092 -0.6120581303124264
-0.7319402421778899 -0.23885225582999187 -0.3678897301870655 -0.7046163673449082 -0.6365327966295897 -0.07710057947739765 -0.48888914108115683 -0.38231896172305485
0.6002514323924902 -0.10546224950865878 0.5349635119479227 0.4048591990132685 0.5777442443351879 0.26061289915127916 0.4613902919605516 0.14946965147475927
0.3336908087653673 -0.3982844264501321 0.2975934490562191 -0.1058903712599992 -0.27038301757576455 0.334271811647979 0.1046362469453559 -0.318389453030687
0.004221697636547801 0.16691508618036618 -0.07459871606155295 -0.4437719920181744 -0.031043701274535984 -0.6930924975191766 -0.4992880722475116 -0.11592461954505015
-0.7140067578025172 0.02301802152948273 -0.4719729979871297 0.21999485285904175 -0.5272421689710051 0.3377250429287311 -0.11237110722396208 0.3433603387079812
0.388874300462131 0.11319914803371726 0.46876212033200687 -0.20062540627365244 0.482745120653322 -0.30409276563230436 0.09827289542706692 -0.2530908811211237
-0.18369332203821048 0.3386503647447179 0.0037570372190524923 -0.12752637256612098 0.049988552255324725 -0.43415201720334695 -0.11735858741415006 0.016620860545896947
-0.289109545169807 -0.40610684773845585 -0.5944387423301603 -0.12635951561695222 -0.5653896601311833 0.03096571878620046 -0.4455127424357168 -0.5811331147857436
0.06635595892698429 -0.35617164744319985 -0.036686179050080224 0.5404058438227877 0.8209874575263498 0.7800379685350973 -0.27399438430238965 0.0397383550806803
0.4344232296790924 0.28659079593432657 -0.10029886289063673 0.1433986335395522 -0.2568763771064629 -0.39682001062692634 -0.0325475188052605 0.16491797489367319
-0.1115058538197147 0.22975253833986717 -0.06791488158927386 -0.1399261406197018 -0.23983888915057136 -0.0750749334685012 -0.4469062223381037 -0.47537879884990153
-0.7507100041925544 -0.5590988780618572 -0.1903530936811095 -0.1167488677662393 -0.1879220603385962 -0.06771008875843078 -0.09183761876384111 -0.05265062450502921
0.25825463120869513 0.6708137255108023 -0.32928166578652485 0.507680688956118 -0.18253855856133064 -0.3549440193063529 0.32040255984776195 -0.43787057163885323

pesos_hidden_output f8 [10, 20]
00000000: a4c4 a6cb 6cf3 11c0 662b 01b0 78bb eb3f
00000010: 5096 ea2a 10ef 0140 002c dc70 62ad f2bf
00000020: 198a 2c17 6eaf 0640 be71 26cb 7445 d1bf
00000030: 375a 1fdb a207 01c0 776d f7b1 bb13 08c0
00000040: 4709 71a6 20d5 f13f b460 225e 1503 fd3f
00000050: 7fe5 3361 b240 fbbf b809 e95c 0711 d03f
00000060: 24af cd68 2b48 03c0 ac7e 9ab5 7ca5 f33f
00000070: 6720 9b3a 02c1 f3bf 4d3d c8c6 d769 c3bf
00000080: 3a55 dfbe 83a6 873f d9e0 8ffb 6488 f5bf
00000090: 5671 5b39 8e39 fabf 6f30 8986 1076 e6bf
000000a0: c29b 18dd ddf5 fb3f 4ce0 fb26 d816 f53f
000000b0: c0cd 94b8 6bf5 f8bf 1699 8906 9d98 08c0
000000c0: 9609 ce1d 6862 00c0 9661 7993 1576 c2bf
000000d0: cac7 9f95 a0c3 ebbf 3967 676f 9976 fc3f
000000e0: ace6 e96a 978c 02c0 d3d7 09fc 9bb1 d33f
000000f0: cd4a 57a4 d11a ef3f 3769 ef84 b155 fabf
00000100: 9178 df9e 4b68 d13f 84a1 6d4f f8fe dbbf
00000110: ef56 bfdf 388c e3bf a3a5 b36a 88f6 0fc0
00000120: 3fa7 0af1 c479 0140 e145 e8f3 494f 0640
00000130: 977a 0da3 43f8 01c0 f5db fd40 3105 f8bf
00000140: 1057 4a28 4024 08c0 cc07 8c44 e9c8 e93f
00000150: 92b4 f722 44c0 8e3f c20b 9be6 16ce d2bf
00000160: 86d1 79cf 8d81 00c0 ea3f 9694 2d36 d13f
00000170: 2a72 48a8 93f1 f7bf 16aa e634 3d55 0940
00000180: 6b53 023a 48ab d3bf c617 ff60 d5e0 e1bf
00000190: f8ff 2183 c823 e33f a5ca 949a 1bdb 01c0
000001a0: afa8 cf5b fffe ffbf b2c2 d124 7d58 f4bf
000001b0: a953 06a8 9839 f6bf 4ad9 e7fb 0ba4 0a40
000001c0: b3cc 00c5 413c 10c0 91f6 ab9b 99b5 e03f
000001d0: cca4 4ce1 ff38 0040 fbff 625d 584d f5bf
000001e0: 3611 0ab1 7f67 f6bf 89b5 eb74 82e2 05c0
000001f0: 7307 7937 df69 07c0 607b 6312 d627 03c0
00000200: 7618 8424 d28f f63f cc69 a486 13e9 ce3f
00000210: 5ad6 b138 4325 0740 68f6 f0bf 2009 f33f
00000220: 9a59 d6af 1004 f83f 6583 3fbf abf6 d63f
00000230: a73a 590f 43e5 da3f e472 d724 61dd d93f
00000240: 8584 b3ee e5d8 fd3f d57a 111f 5407 08c0
00000250: 9daf 97aa 4f85 f7bf 1fa7 7cef 4cec e5bf
00000260: f694 b268 f365 d93f 0c18 9afc 9243 09c0
00000270: ee39 cf2d a6e6 d23f c98b a7d7 eefe d8bf
00000280: 23f8 c60f af49 d43f 73a1 c5a4 a11f f13f
00000290: 31bf 4d48 1dcd 04c0 6db3 2404 854c 0340
000002a0: aa86 e4ca 857d 0bc0 a2f1 0c31 b18b fa3f
000002b0: e411 7662 1a3d e0bf 2782 f6bd a0f7 ffbf
000002c0: 8a90 7337 c177 fc3f a8c3 62bb 39e0 0fc0
000002d0: fc9c 3280 7941 0fc0 7b93 1d30 6d5b f2bf
000002e0: 6dd7 8f6f c8ca c83f dbde 8855 f8b6 ed3f
000002f0: c840 b3df f950 f5bf b6f3 4be9 34a4 f1bf
00000300: 9156 8f11 f9c4 e23f adaf e304 c9bc f5bf
00000310: 66f8 a6c0 4666 f53f 15db 6ce9 1b0b f33f
00000320: c8fe f5af b858 0240 ebcf fba8 931c efbf
00000330: d9ae d2c9 a3ed 0b40 93ab d751 2b59 e8bf
00000340: 5d38 5512 01ce f2bf eee8 c4cc c8e6 ea3f
00000350: f6b2 254d b283 1040 71c0 aad2 4b03 bbbf
00000360: 0d8d 2e4a 611c c8bf a0e3 d6db 7c1a ebbf
00000370: dd7c 7041 b25c e4bf 66ba 37c8 cde4 f6bf
00000380: c2eb 8605 6f2c fe3f 3518 7131 4d40 f53f
00000390: f1d6 9c2d 5c10 dcbf 657e be36 582f f7bf
000003a0: bb9b 403c b2a1 f7bf 61b6 c556 483d f1bf
000003b0: f9b9 3168 fc1f 02c0 0ab9 e137 1764 0bc0
000003c0: 8367 14ea d55f 0840 5f83 c1e4 5690 f53f
000003d0: 60a1 f56f 0616 ecbf 7975 0106 ee64 f63f
000003e0: d748 9bb2 b884 07c0 1892 bd99 dbb2 d8bf
000003f0: 69b5 df2b 3b06 f6bf 8034 11ba d806 11c0
00000400: e1ab 5870 409a fd3f 62b3 7335 94ae fe3f
00000410: 9500 3a02 8b40 fa3f dbfd 193a cf51 cbbf
00000420: de93 a527 a341 08c0 3886 71f9 258b febf
00000430: b03c 70c9 dee0 f8bf ffe1 ce1b a79c 01c0
00000440: e44c 0c16 a4b8 08c0 ddfc 4c63 b35c e13f
00000450: 206d 7b37 221d 09c0 b9fb a61b e6ff d9bf
00000460: a45f 8d1b 0ef5 fdbf ea73 601d e95b 0bc0
00000470: ed92 2b7f b7f9 f53f ca4b acee 5392 0440
00000480: 6602 511a 9194 da3f bec9 54c0 13c0 c73f
00000490: 5300 221c f216 f7bf 81f2 7f57 63e0 f33f
000004a0: 67fd 2da3 2c8f 00c0 7c53 060c c260 09c0
000004b0: c449 9ba0 7c76 04c0 f93f b98f e15c e33f
000004c0: 9f94 c6dd 7966 dfbf 529d ff5a 84f4 f8bf
000004d0: 9ac4 5f9b cde0 f4bf 06d8 3bf1 4f5d f43f
000004e0: 516b 7405 acb5 f93f 46b0 0f03 d650 1040
000004f0: b4fc 5bfd 63e2 e6bf da33 5b26 c29d d6bf
00000500: aa55 bd6e 47c1 f23f 8d10 ab94 28d6 e7bf
00000510: 6cd6 9a0d fd0b f6bf b3f3 185c 9882 12c0
00000520: 9a7c c46f 815a fabf 99ad bc74 2245 e8bf
00000530: 03b3 7e64 ce9a 0cc0 646b 6a5b ac1c 00c0
00000540: 2e45 6370 823e febf c2c1 3faf ce58 e23f
00000550: 6763 c6e4 ded8 f63f f66f 9729 e475 0340
00000560: f428 6d25 31d4 fe3f edd5 eb04 816d fa3f
00000570: e236 bc6f 499d 07c0 e6a0 c2a4 d0ce e23f
00000580: 1fa8 1942 a0da 04c0 ab5d 0174 f402 fcbf
00000590: 21e4 34bc 7f8d 0c40 1661 afba 276b 8abf
000005a0: 310d 73e4 4256 db3f edaa 3e1f 6948 fc3f
000005b0: 9205 8c72 e7ac 03c0 3a6e 84f1 e4d5 f83f
000005c0: 67af 559b 00b1 0740 9f9a 0f6b 4de8 c93f
000005d0: 4808 5652 8a60 eabf fbba 6ec8 08c4 06c0
000005e0: b402 b734 090f 11c0 141d 9d8f 4d02 08c0
000005f0: 8961 23a2 81de 0540 f4c4 b26c 6815 f53f
00000600: ca2c 3eae 3a82 e0bf cfe9 43bd a982 e3bf
00000610: 5962 7bda 8c8b f3bf de68 bd9c 595d fabf
00000620: bed4 76d6 8a09 e73f ca19 71e1 47ec 10c0
00000630: 3112 3e73 59d6 d5bf aee7 0399 2060 ecbf
-4.4877197094475925 0.86663469673054 2.241730056079895 -1.1673302086444437 2.8356591997592315 -0.269864271534768 -2.1287285918181413 -3.0096353438981924
1.1145330907462083 1.8132527997131946 -1.7032951161366723 0.25103935311576775 -2.4102390468377894 1.2279021352659738 -1.2346212662978588 -0.15166756826554675
0.011548070204222872 -1.3457994295732105 -1.6390516510501434 -0.701912176862164 1.7475260387961815 1.3180772326286556 -1.5599171838956494 -3.0745182524434638
-2.0480501488211287 -0.1442286462868309 -0.8676302835794953 1.778954920932348 -2.318648181212515 0.3077154122651084 0.9720237932000032 -1.6459212487012118
0.27199068560538203 -0.43743713146843555 -0.6108669633929064 -3.995377381904022 2.184457667482007 2.7887152724513133 -2.2462227571953224 -1.5012676752792207
-3.017700495499305 0.8057752932365871 0.015015156094671665 -0.2938287021644862 -2.0632587632227937 0.2689317656559057 -1.4964787076525092 3.16662064866001
-0.30732923188161604 -0.5586954969846765 0.5981180726230368 -2.231986243882903 -1.9997552477239358 -1.271603721452419 -1.389061600061931 3.3301009826783785
-4.058844640897564 0.5221679726088998 2.027831802512628 -1.33138309935748 -1.400268260536064 -2.735600388949653 -2.9266952832994604 -2.394451278363178
1.4101125170141393 0.24148792337730496 2.893194621016659 1.1897284982400382 1.5009924763340678 0.358805596128198 0.42024303912050204 0.4041369304448337
1.8654536556498738 -3.0035784175118843 -1.4700466789026685 -0.6850952794531827 0.39684758400319653 -3.1579951986814248 0.29532770608503156 -0.39055987415320864
0.31699730435127743 1.070222514763455 -2.6001535080648854 2.4123630832386227 -3.4362903452864275 1.6591045299565867 -0.5074588702269094 -1.9979560299326609
1.7792370000907192 -3.984485115005061 -3.9069700255819253 -1.1473209266198114 0.19368844458920922 0.9285852118109362 -1.332269548252997 -1.1025895226623397
0.5865445464102824 -1.3585901442520296 1.3374698186376235 1.1902121656582427 2.2933210131594457 -0.9722383785688157 3.4910350577755307 -0.7608849142537671
-1.1752939907196585 0.840671920718959 4.128609853197068 -0.10551904576527861 -0.18836609003219743 -0.8469833654154293 -0.6363154676545509 -1.4308603116038738
1.8858480659389305 1.3281986171073303 -0.4384985394893724 -1.4490587366525685 -1.476976619110913 -1.0774615659278413 -2.265618146913081 -3.423872410369886
3.0467947280384933 1.3477391181733862 -0.877688616438757 1.399641059360276 -2.9398054078711584 -0.38591661466333127 -1.3765212739775399 -4.256686122226824
1.8501591099291022 1.917621811672881 1.6407575690246052 -0.21343412720669516 -3.0320494744687343 -1.9089717620739872 -1.5548999661148564 -2.2014906094084377
-3.090156719446542 0.5425660075633477 -3.1392254194776257 -0.40624382687013455 -1.8723279072055243 -3.4198782248554283 1.3734660117708544 2.5714491506891806
0.41531779832806703 0.1855492295376972 -1.4431019877374822 1.2422822397194582 -2.069909357872962 -3.172245115225847 -2.557854895342844 0.6050880248167224
-0.4906296411302921 -1.5596965365055735 -1.304883582048467 1.2727813170618005 1.6068535054279958 4.078941390831522 -0.7151355694221793 -0.35337880845764646
1.172187264038579 -0.7448923972774694 -1.377926877159008 -4.6275343313435995 -1.6470960966032977 -0.7584392814655302 -3.575588975063853 -2.014000620064893
-1.8902611150882183 0.5733407423813832 1.4279469429513598 2.4325640916194926 1.9268046819657316 1.651734370444838 -2.951800225192401 0.5877459733938195
-2.6067509807662783 -1.750721409936754 3.569091291774854 -0.012899694809604994 0.42713997182382274 1.7676783771991567 -2.4594258259755373 1.552220290591221
2.961426938583759 0.20240180709443664 -0.824284706890702 -2.8457198771278605 -4.264683555288389 -3.001124498350359 2.733645693497412 1.3177265401866949
-0.5158971217328141 -0.6097000786388039 -1.221569875188058 -1.6477905390407197 0.7199148358110035 -4.230742952850457 -0.3412078500189493 -0.8867342938021829

bias_input_hidden f8 [20, 1]
00000000: c4b2 53f5 6454 f33f 5eb6 3e43 4236 d03f
00000010: bc5e 2dcf 227b e93f 54fb af3e 138e ee3f
00000020: 9abb e73c 2c3c c3bf a920 6e9a 171a b43f
00000030: 2859 77a3 9166 c1bf a405 c358 096e c9bf
00000040: 3b46 84ac 5181 dabf 0e8b 52e0 11e8 e8bf
00000050: 1357 197b 43e4 e6bf b1a6 5920 ba29 ebbf
00000060: 24b4 13ad d80c aa3f 7136 0b78 3524 f0bf
00000070: 9f96 13cc 8ef4 cd3f 8c81 d62f dfa6 d2bf
00000080: bcc4 6369 1769 e13f 4954 492b 0712 df3f
00000090: f59f 38d8 e678 ecbf 539b c361 543b d1bf
1.2081040938457344 0.2533116966904795 0.7962812467985354 0.9548431610454409 -0.15027382825743701 0.0785231353785344 -0.13594265443561793 -0.19867054781029225
-0.4141430077298513 -0.7783288365647836 -0.7153642086293267 -0.8488436347808684 0.05087926018482161 -1.008840054436771 0.23402581181214985 -0.2914350478331691
0.5440785463707907 0.48547534205619464 -0.8897585127897388 -0.2692461924292974

bias_hidden_output f8 [10, 1]
00000000: 83ec 85ce 930a f1bf 2078 c77e 5861 e3bf
00000010: 5423 0de1 24f2 f2bf 1b94 600f dd5f fbbf
00000020: b01b 474e 1b0f f0bf a85d 98a6 3c56 e0bf
00000030: a1e4 9501 a4ed f7bf 4bf0 85b1 fb01 e9bf
00000040: 163d 49cd 1d20 08c0 5a36 29ca 34d3 fabf
-1.065082365733162 -0.6056330181270404 -1.1841172019068908 -1.710904178683683 -1.003688150188946 -0.5105269674121944 -1.4955177366194123 -0.7814920871019323
-3.0156818426108982 -1.6765640160478115
